data/nn/layer_4_matrix_W.npy (npy, 640 bytes, 1 tensors)

array f4 [16, 8]
0	0xbf163fdd	-0.586912
1	0xbe92cfa2	-0.28674036
2	0x3dda37c8	0.10655171
3	0xbfc4e0ae	-1.5381067
4	0xbe52773f	-0.20553301
5	0xbeccbc15	-0.39987245
6	0x3e5dc6a2	0.21657804
7	0xbfc3c11c	-1.5293307
8	0xbfd44bf0	-1.6585674
9	0x3fa3901d	1.2778355
10	0xbfa175f0	-1.2614117
11	0x3f75dd9b	0.9604127
12	0x3fb1c5cc	1.3888488
13	0x3c96a744	0.018390305
14	0xbbf815f9	-0.0075709787
15	0x3e1fb7e2	0.1559749
16	0x3dc0495f	0.093889944
17	0xbe419fea	-0.18908659
18	0xbc56bc44	-0.013106409
19	0xbecf91d6	-0.40540951
20	0xbe89e606	-0.26933306
21	0xbeff830e	-0.49904674
22	0xbec20180	-0.3789177
23	0xbe63421d	-0.22193189
24	0xc0361063	-2.8447502
25	0x3ed568e5	0.4168159
26	0xbf844015	-1.0332056
27	0x3e2135d6	0.15743193
28	0x3e7f531a	0.24934044
29	0x3f651641	0.8948708
30	0x3d60762f	0.05480021
31	0xbe8d5638	-0.27604842
32	0x3cc8d898	0.024517342
33	0x3eba78ae	0.36420196
34	0xbf601d3b	-0.875446
35	0xbf38e4cb	-0.7222411
36	0x3f059025	0.5217307
37	0x3efa4f14	0.48888457
38	0x3eed222d	0.46315137
39	0x3e4f988a	0.20273033
40	0x3e9feead	0.31236783
41	0x3f0c522e	0.54812896
42	0x3f0f1e65	0.55905753
43	0x3dd59246	0.1042829
44	0x3e58a009	0.21154799
45	0xbee3e47c	-0.44510257
46	0xbed3366c	-0.41252458
47	0xbfa9d17b	-1.3267053
48	0x3e4a47b5	0.19753917
49	0x3ea308ca	0.31842643
50	0x3deb3a76	0.1148576
51	0x3ecda907	0.4016802
52	0x3f12f439	0.57403904
53	0xbf140d9e	-0.5783328
54	0x3f30e4ab	0.6909892
55	0x3ebf6dc2	0.37388426
56	0xbe8c7d05	-0.27439132
57	0xbe80e454	-0.251742
58	0x3f36354e	0.71175086
59	0xbf1eec4a	-0.620793
60	0xbe288099	-0.16455306
61	0xbecdb0c0	-0.40173912
62	0x3dcc4f03	0.09976008
63	0xbf8cd2eb	-1.1001867
64	0xbf1f7396	-0.62285745
65	0x3e90766c	0.2821535
66	0xbd312f88	-0.04325822
67	0xbf83232e	-1.0245111
68	0x3ecb34b5	0.3968865
69	0x3eae2c4a	0.34018165
70	0x3ec8f5a0	0.39249897
71	0x3e0c2d11	0.13689066
72	0x3e6db20d	0.23212452
73	0x3e9d5279	0.30726984
74	0x3ee2151c	0.4415673
75	0xbeeb0d03	-0.45908365
76	0xbeb8fcb9	-0.36130312
77	0x3ebcc3d9	0.3686817
78	0x3ecf4230	0.40480185
79	0xbba04a00	-0.004891634
80	0x3f95b9db	1.1697344
81	0xbf4e65f6	-0.8062433
82	0x3f817768	1.0114565
83	0x3f2517e0	0.64489555
84	0xbf5a7d0b	-0.8534705
85	0x3dadcb70	0.08486068
86	0xbf9c5f7d	-1.2216641
87	0x3ee63f02	0.44969946
88	0xbebc1cdb	-0.36740765
89	0xbe7417b2	-0.23837164
90	0x3d4d1ea5	0.050078053
91	0xbf6c1fb2	-0.92235863
92	0x3f0a067f	0.5391616
93	0x3ef81e79	0.4846075
94	0x3f2ec07d	0.68262464
95	0x3e3dac98	0.1852287
96	0x3d247105	0.040146846
97	0x3f31de7b	0.69480103
98	0xbeaf181a	-0.34198076
99	0xbddacb71	-0.106833346
100	0x3e955f1b	0.29174122
101	0x3d567e26	0.0523664
102	0x3d67465b	0.05646358
103	0xbf89b4fe	-1.075836
104	0xbda7aabd	-0.081868626
105	0x3f6118c4	0.87928414
106	0xbe9212b0	-0.28529882
107	0xbc495a71	-0.012289629
108	0x3e056147	0.1302539
109	0x3e0d9005	0.1382447
110	0x3ed9b33b	0.42519554
111	0xbdb765e6	-0.089549825
112	0x3e483370	0.19550872
113	0x3ecd707e	0.40124887
114	0xbe8228fd	-0.25421897
115	0xbf19c63c	-0.60068107
116	0x3f3884f3	0.72077864
117	0x3eb50f38	0.35363173
118	0x3d82cc97	0.06386679
119	0xbdb30bf0	-0.08742511
120	0x3ec4e29e	0.38454145
121	0xbdefcaca	-0.11708601
122	0x3f1976f9	0.5994716
123	0x3fad4e3e	1.3539503
124	0xbd4d98ea	-0.05019466
125	0xbed86d80	-0.42271042
126	0xbe6deaae	-0.23234054
127	0x3f4102ea	0.7539507
