data/nn/layer_2_matrix_W.npy (npy, 2176 bytes, 1 tensors)

array f4 [16, 32]
00000000: 9890 c43e 6619 903e 59a0 acbe 04cc 843d
00000010: 4654 c63e 7a23 843e 3fc3 60be 182f 51be
00000020: e76f 7abe f79f 30bd 49b1 9fbe 553f 2c3e
00000030: 35ee 3a3f 0ea3 40bf 868d 8abe 21d4 633c
00000040: 6358 9abd 15c2 cf3d dc16 f43c 57e9 0dbf
00000050: 6db8 c73e c0ef 333d e4e5 87be 74f2 813e
00000060: 809a 12bd 0083 c6bb 326b 5abf e2a0 ec3e
00000070: 70cf 2bbd c6ca 6ebe 9da7 d93e b465 0bbf
00000080: 647f 533e 87a0 c1be 0430 bdbe 8a1c 1ebe
00000090: f5c5 913e bce2 a03e 6ce3 693f 49f2 7abe
000000a0: 8184 64bd 9804 d2bd 5b58 6e3f 8ce2 86bf
000000b0: f5ed 3bbe 6ff4 e9be feed fdbb 65a2 e7be
000000c0: afbe 0dbf 06f2 e5bd a4e3 333f c1d2 9d3f
000000d0: 31cd b03e def4 96be e8e3 4fbe ac98 953e
000000e0: 469b 853d 70c3 d8bc 2ca5 9fbe 9c3d f23c
000000f0: a757 1ebe 0b5b 763c 5687 273f 8770 9abe
00000100: cf09 ff3d be2f 79be a9cd 363e f24c 0a3e
00000110: 7c7a ce3c 8fb5 b93e 6036 413e 51c2 cb3e
00000120: a86d a13e 0590 133d 0aaa 48be bad2 92bd
00000130: 154c cd3e 8daf 35bf a1b9 d93e 725c 7f3e
00000140: 49c1 84bf f268 cd3e 33cd adbf a6ee c5bf
00000150: 8170 ca3c fa3b 9fbe 96f0 87be c140 413e
00000160: 8091 883b 4d9a 64be 9871 863e e202 023f
00000170: 90f5 253e 5b71 31be 872c d73e 6158 383e
00000180: e793 973e 22ad eb3e 55e9 93bc d0eb dbbc
00000190: 3a3c 38be 4c44 1d3e 9501 babd 630d cf3d
000001a0: 7684 1fbf ecda 603c b51e cd3e 9e79 333e
000001b0: cda5 e93e 371c 053e aee6 ce3d 7e46 20bf
000001c0: 7eb5 43bf b7b6 96bd 4ce2 263f 12a4 e13e
000001d0: 5fc4 f63d f9c2 9bbe 89f7 07bf 8e12 9fbe
000001e0: ebaa 07be a046 98bd 9701 e2be 8cf5 443e
000001f0: a444 933b a012 37bc 3d2d 313e ccc3 58bf
00000200: 8f5f 8a3d 5087 d63e 26ea 9a3e 2574 99be
00000210: 7e53 fa3d 2dd8 88bc 0f65 8dbf 8381 30be
00000220: a47d 1abe 1f49 c9bb 40b1 a03c 5ef3 a13e
00000230: 27e1 c33d 6c87 fbbd 1928 37bc 3377 1dbf
00000240: 6a63 cdbe df19 583d 3ff2 13bf 56ef b3bc
00000250: 482a 62bd 57fe bf3b eda9 3dbf 726e 98bf
00000260: 34a1 30be d056 01bd 5b6a 62bf a2ca 4cbe
00000270: 1367 223d 24a7 a9be d9b2 a43e f550 ddbe
00000280: 2c51 0fbe 5c49 a9bd a613 863e cefe 49be
00000290: 582e b93d 12a8 273e 81b9 8bbe a46e bebd
000002a0: 33af 86be cccc 313e 21ee 783e f839 1e3e
000002b0: a61a 2dbe 1a68 6fbe 4239 573c 03e5 633c
000002c0: 4cd0 99bd e1d6 4f3c 2ea7 b0be 5059 9abe
000002d0: e287 673e 704d 973e d527 8f3e a05e 2b3c
000002e0: 502a 263d 9229 debd 60e4 593e ddb9 90be
000002f0: 4595 33be a032 3f3c 1472 a1bd e335 b03e
00000300: 8cf0 01bd 57ed 50be ffbb 133c 6ae6 b1be
00000310: b689 be3e c788 023f 1eb8 e4be 6876 013f
00000320: 3ec3 46be d70f 573e 9ae5 a8be b524 afbe
00000330: 055d 293f e0be 9cbf 5233 38bd 194c 11bf
00000340: 1063 b7be ee8d 933e ca43 d6bd bf3b a13e
00000350: a152 05be 5882 ab3e 94c6 6abe 539d 9ebc
00000360: 96bb ebbd e0eb 46bd c0c3 debf f678 ae3e
00000370: 2b13 9ebe 2b3f 08be 6dbf df3e 20cf 15bf
00000380: 84a3 913e b7ef b63e 1905 dabd 3397 33be
00000390: b393 8d3e c039 f739 92a8 cdbe 29c6 e23e
000003a0: 4e45 26be e848 a3be acdc 27be 03b1 07be
000003b0: f7f7 e03e aaa5 05c0 de53 073e 0b50 e9bc
000003c0: b868 24bf b573 283c 7ef3 17bf 52d2 7b3e
000003d0: 6ae3 cf3e 9ea4 10be 7b4c 943e 7f73 873e
000003e0: a836 64bd 9012 69bd 0152 cc3d 2d12 db3e
000003f0: 02c2 3cbe becd 68be d969 923d 937e 40be
0.38391566 0.28144377 -0.33716086 0.064842254 0.3873617 0.25808316 -0.2194948 -0.20428121
-0.2445675 -0.043121304 -0.31189945 0.16821034 0.73019725 -0.752488 -0.270611 0.013905556
-0.0753639 0.1014444 0.029796056 -0.55434173 0.39007893 0.043929815 -0.2654258 0.2538029
-0.035791874 -0.006058097 -0.8531982 0.46216494 -0.041945875 -0.2331954 0.4251069 -0.5445206
0.20654064 -0.37817785 -0.36950696 -0.15440574 0.28471342 0.31422985 0.91362643 -0.24506487
-0.055790428 -0.102547824 0.9310357 -1.0537887 -0.18352492 -0.456943 -0.007749318 -0.45241085
-0.55369085 -0.11227803 0.7026923 1.2329942 0.3453155 -0.29483694 -0.20301783 0.29218042
0.06523757 -0.02646038 -0.31180704 0.029570393 -0.15463124 0.015036355 0.6544088 -0.30163977
0.12453043 -0.24334618 0.1785189 0.13505915 0.02520489 0.3627133 0.18868399 0.3979669
0.31528974 0.03602602 -0.19596115 -0.07169099 0.40097108 -0.70970994 0.42524436 0.24937609
-1.0371486 0.4011913 -1.3578247 -1.5463455 0.02471185 -0.31100446 -0.2655074 0.18872358
0.0041677356 -0.22324486 0.2625854 0.5078565 0.16206956 -0.17328398 0.4202616 0.18002464
0.29605028 0.46030527 -0.018055597 -0.026845843 -0.17991725 0.15358084 -0.09082333 0.10109975
-0.62311494 0.01372407 0.4006249 0.17526862 0.45634308 0.12999044 0.101025924 -0.6260756
-0.7644881 -0.07359069 0.6518905 0.44070488 0.120491736 -0.3042219 -0.53112084 -0.31068844
-0.13248794 -0.07435346 -0.44141838 0.19234294 0.0044942666 -0.011173874 0.17302413 -0.8467376
0.067565076 0.4190011 0.30256766 -0.29971424 0.12222956 -0.016704643 -1.1046466 -0.17236905
-0.1508699 -0.00614275 0.01961577 0.31630987 0.09564429 -0.12281689 -0.011178994 -0.6151001
-0.4011491 0.052759048 -0.57791513 -0.02196471 -0.055216104 0.005859177 -0.7408741 -1.1908705
-0.17248994 -0.03157693 -0.88443536 -0.19999173 0.03964908 -0.3313533 0.321677 -0.43225828
-0.13995808 -0.08265945 0.26186866 -0.19726107 0.090420425 0.16372707 -0.27289966 -0.09298447
-0.2630554 0.1736328 0.24309589 0.15451801 -0.16904697 -0.23379555 0.01313621 0.013909581
-0.075104326 0.0126855085 -0.34502548 -0.30146265 0.22610429 0.29551268 0.27960077 0.010459572
0.040567696 -0.10847773 0.21278524 -0.28266802 -0.1753741 0.011669785 -0.07883087 0.34416112
-0.031723544 -0.20403038 0.00901699 -0.34746104 0.3721444 0.50989956 -0.4467172 0.505713
-0.19410416 0.21002136 -0.32987672 -0.34207693 0.6615756 -1.224575 -0.044970818 -0.5675674
-0.35817766 0.2881922 -0.104621485 0.31490895 -0.13019802 0.33497882 -0.22927314 -0.019362127
-0.115103886 -0.04856479 -1.7403488 0.3407666 -0.30874 -0.13305347 0.43700734 -0.5851917
0.28445065 0.35729763 -0.106455036 -0.17538147 0.27651748 0.00047154538 -0.4016767 0.4429181
-0.16237375 -0.3189156 -0.16392773 -0.13251118 0.43939182 -2.0882363 0.13215587 -0.02848055
-0.6422229 0.010281493 -0.59355915 0.2459195 0.4060319 -0.14125296 0.289646 0.26455304
-0.055716187 -0.05690247 0.099765785 0.42787305 -0.18433383 -0.22734734 0.07149095 -0.18798284
