data/nn/layer_3_matrix_W.npy (npy, 2176 bytes, 1 tensors)

array f4 [32, 16]
000000 c3 88 c5 be b6 ed 14 bf 2c 25 7f be 47 9b 8d bd
       -0.38580903 -0.5817522 -0.24916524 -0.069143824
000010 d8 ad fc 3e e7 d5 9b be cc df b5 3c 4b 18 ea bd
       0.49351382 -0.30436632 0.022201441 -0.11430415
000020 20 00 88 3d 81 c9 86 3e eb 1e 97 be 23 36 d6 bd
       0.06640649 0.2632561 -0.29515776 -0.104595445
000030 61 18 09 3e 84 07 8f bd 45 94 e2 3d 23 bb ac be
       0.13388206 -0.06983855 0.110634364 -0.33736524
000040 db 3d fd 3d 50 52 f6 3d aa 40 71 3b 89 0d 3d be
       0.123653136 0.120274186 0.0036812224 -0.18462195
000050 ed fc 01 3e db a2 cf 3e f3 ef e2 3e 8a fd 8b 3d
       0.1269414 0.40553936 0.44323692 0.06835468
000060 72 b3 46 be b5 17 6c be 79 f3 ea be 45 b1 54 3e
       -0.1940439 -0.23055919 -0.4588888 0.20770748
000070 3a fa 09 3d 64 2b 87 3e 2c 68 62 3e 4a f3 ab 3e
       0.0336859 0.26400292 0.22110051 0.33584052
000080 87 3f 7f bd 5a 35 44 be 92 12 6c be 79 d2 c6 bd
       -0.062316444 -0.19160977 -0.23053959 -0.09708113
000090 17 c4 9f 3d 4b ad 8b 3d 88 48 16 3e 32 cc 56 3d
       0.07801073 0.068201624 0.14676106 0.05244083
0000a0 d2 c9 9e bd d5 97 2a 3d b5 81 51 bd be ca 8b 3e
       -0.07753338 0.041648705 -0.05114909 0.27303118
0000b0 f9 a9 5b 3d d7 cc c0 bc 9e 9c a8 bd 3d 89 84 bd
       0.053628895 -0.023535175 -0.08232997 -0.064714886
0000c0 8b 30 14 be b0 bc 6a bd 40 6b 49 bc 32 77 88 be
       -0.14471643 -0.057308853 -0.012293637 -0.2665344
0000d0 40 25 4c 3c 44 fb 5f be 2c b8 b1 3d c0 05 cb bb
       0.012460053 -0.21873194 0.08677706 -0.006195754
0000e0 9b c0 2f be cf a7 0a be 50 44 ab 3c 90 68 6f 3d
       -0.17163317 -0.13540576 0.020906597 0.058449328
0000f0 09 82 4f be d4 46 e6 bd a0 11 91 be f8 56 a2 bd
       -0.20264448 -0.11243978 -0.2833376 -0.07926744
000100 ab cd 22 3e d9 a0 47 bf 6b 39 ae 3e 07 72 21 40
       0.15898769 -0.7797981 0.3402818 2.5225847
000110 26 ab 1d 40 1c c9 d6 bf 97 ce d0 be 32 aa 3a c0
       2.463571 -1.6780124 -0.40782616 -2.916638
000120 79 7f 9c 3f 54 f7 97 be bd 95 dc 3d c6 a9 aa 3f
       1.2226402 -0.29680884 0.10770748 1.3333061
000130 29 e0 46 3f 0d a5 3e 3e 76 d8 dc 3f 49 40 0a c0
       0.7768579 0.1861765 1.7253559 -2.1601737
000140 f1 12 c1 3e 04 f5 c1 3d 42 a9 98 be 5c b3 c4 3e
       0.37709764 0.09470561 -0.29816633 0.3841809
000150 14 71 d8 3e b4 8c 39 3d 33 2d 94 bc 5d 6f 58 3f
       0.42273772 0.0453002 -0.018087959 0.84544927
000160 54 ac 08 3e ca 74 6e bc 25 23 04 bf 71 19 18 bd
       0.13346988 -0.014554212 -0.51616126 -0.037133638
000170 26 4a b1 be 42 33 67 be 3f 14 01 3f 5f d0 d6 3d
       -0.34626883 -0.22578147 0.5042152 0.104889624
000180 b9 8f 8a be 47 7f 46 be 23 fe 01 3c e2 ec e2 bd
       -0.27062777 -0.1938449 0.007934126 -0.11080338
000190 df 62 17 be 06 93 89 bf 77 d5 d3 3e 82 87 9e bf
       -0.1478381 -1.0747993 0.41373798 -1.2385104
0001a0 e0 94 3e 3f a2 1a 4a bd f3 ad 3c 3f 7d ef 17 be
       0.74445915 -0.049341805 0.73702925 -0.14837451
0001b0 d9 d4 ea 3e 71 50 f2 3e 45 d0 01 bf 34 aa 75 3d
       0.45865515 0.47326997 -0.5070842 0.05997677
0001c0 d7 eb 37 be 21 47 66 bf 14 b0 b7 be 29 f8 ef 3e
       -0.1796106 -0.89952284 -0.35876524 0.4686902
0001d0 e8 53 90 3e 03 83 9d 3e 5b d1 a3 be 54 33 cb 3e
       0.28189015 0.30764017 -0.31995663 0.39687598
0001e0 e9 89 b0 3c 28 ca 2d 3e ff 4f 1d 3f b5 27 ac 3d
       0.021550136 0.16971648 0.6145019 0.08406011
0001f0 e5 38 01 bf eb 75 47 be ce ef ea 3e 9c 4a 62 3e
       -0.5047744 -0.19478576 0.4588608 0.22098774
000200 e4 42 ae 3d 50 06 46 bf a4 c4 e3 3d c5 97 b1 3d
       0.08508852 -0.7735338 0.111214906 0.08671526
000210 10 13 2d be 53 88 ca 3c c7 04 11 3f 77 d1 b3 3e
       -0.16901803 0.024723208 0.56647915 0.35120746
000220 80 2c 5f 3d 88 fb 8a 3e 2d 8a 0d 3f e3 29 ca bd
       0.054485798 0.27145028 0.55288965 -0.098712705
000230 6b d6 0e be af 32 00 3f 4f c3 80 3e c7 87 67 3d
       -0.13948981 0.5007734 0.2514901 0.05652597
000240 17 2d 6d be b0 4c a2 be 81 ea 16 3d c3 23 39 be
       -0.23161732 -0.31699133 0.036844734 -0.18080048
000250 c6 d6 9f bd b8 3a 1b be f2 54 81 be 5f 5f cf 3c
       -0.07804637 -0.15159118 -0.2526012 0.025314031
000260 ae 5b 0d be 80 dd 2a be 72 63 bf bc 41 1a b3 be
       -0.13804504 -0.16686058 -0.023362849 -0.34980968
000270 23 2e 16 bd 89 b7 9e 3c ff 54 92 3e 81 ed 6a be
       -0.036665093 0.019374626 0.28580472 -0.22942163
000280 94 e1 18 bf d0 0b 90 3f dc 50 91 bd e4 ab 96 bf
       -0.59719205 1.1253605 -0.07095501 -1.1771207
000290 07 61 ed be da 9b 5c be 8a 79 98 3f ad 63 a0 bf
       -0.46363088 -0.21543828 1.1912091 -1.2530419
0002a0 ef 76 cf be e0 6f 2f 3d 7e 15 16 3f e1 07 cc be
       -0.40520427 0.0428313 0.58626544 -0.3984976
0002b0 d0 6b ab 3e a7 fa ff 3e 0b 9e 34 bf 80 dd e6 bb
       0.33480692 0.4999592 -0.70553654 -0.007045448
0002c0 7c 06 69 be 7a 64 02 3d 16 d1 ac 3e 79 e3 64 3d
       -0.2275638 0.031834103 0.3375327 0.055880997
0002d0 94 8b a6 bc 29 23 4e 3e b9 b3 d2 3e ad 8b b2 3e
       -0.020330228 0.201306 0.41152743 0.3487219
0002e0 3f 48 ea 3e e9 7b b7 3c e1 07 84 3e c3 ca b7 3e
       0.45758244 0.022397952 0.2578726 0.35896882
0002f0 2b 4c c3 3e f9 65 a9 3d 38 6b af 3d 92 31 9f 3e
       0.3814405 0.08271403 0.08565372 0.31092507
000300 39 9e 01 3f e0 61 8e be 67 d6 11 be 8a 44 9f 3e
       0.50632054 -0.27809048 -0.14241944 0.3110698
000310 6d e6 f3 3e 59 04 88 3e b3 4d a7 3e 33 a9 15 3f
       0.47636738 0.26565817 0.32676467 0.584613
000320 94 8b 4b be 01 a2 2d be ba 0d 33 bf 80 31 d6 3a
       -0.19877464 -0.16956331 -0.6994282 0.0016341656
000330 80 06 ed bc 55 ca 7f be 37 3e 42 3e 9c cc 9a 3e
       -0.028933764 -0.24979527 0.18969046 0.3023423
000340 c2 93 9e 3f f3 8f ea 3f 13 ea f5 bd 28 ce 4a bd
       1.2388842 1.832518 -0.12007537 -0.049513012
000350 e2 37 7d be 4f 65 c7 3f 41 a7 33 3f af 52 8e be
       -0.24728349 1.5577792 0.70177084 -0.27797458
000360 98 b6 d4 be 20 0f ff bd 11 ee dd be d4 5a 64 be
       -0.41545558 -0.12454057 -0.43345693 -0.22300273
000370 b5 ad d6 3f 10 a4 d2 3f 2e d1 a3 3d d0 63 27 bf
       1.6771761 1.6456318 0.07998882 -0.65386677
000380 c2 7c f8 3d 02 b0 22 bd 8d b3 f5 bd b3 e2 f3 3d
       0.12133171 -0.039718635 -0.11997137 0.11908474
000390 a4 ec 9c bd 8a fd d0 3e a5 5a da 3e f9 f7 25 3e
       -0.07662323 0.40818435 0.4264728 0.16207875
0003a0 72 33 40 3e 1a 01 97 bd bc a1 27 be 9b 32 f3 bd
       0.18769625 -0.07373257 -0.1637029 -0.118748866
0003b0 0a 38 77 be fe f9 a3 3e ca 73 ad 3e 8f 3d 8b bd
       -0.24142471 0.32026666 0.33877403 -0.06798851
0003c0 f2 1f 3c 3d ab 59 27 bf c3 1d ad be af 81 c1 3e
       0.045928903 -0.653712 -0.3381177 0.37794253
0003d0 91 1d 35 be 35 1e 46 3d d0 3a 0c 3f 8f 0b 60 bb
       -0.1768706 0.04836865 0.5477724 -0.0034186577
0003e0 d2 d1 c0 3d 11 37 ca be 77 fa 16 be 2a 54 46 3e
       0.0941502 -0.39495137 -0.14743982 0.19368044
0003f0 e2 2b 8d bd 52 ac 07 3f 6e 63 50 be 24 ba 82 3e
       -0.068931356 0.52997315 -0.2035043 0.2553264
