data/nn/layer_1_matrix_W.npy (npy, 640 bytes, 1 tensors)

array f4 [8, 16]
00000000: b640 fb3e f8cd 90be fe4a 273e 3e82 4f3e
00000010: 36cc b6be baf6 f03e c54c 803e 9a65 163c
00000020: 9695 d8be c548 823e 3038 933e 0f44 1fbe
00000030: 641e e4be 3525 0ebf ee7a 66be 381a e3be
00000040: b34d cc3e 3217 42bd 3871 ec3e 3dcd ca3e
00000050: 09bb fd3e aaa4 d0be decf f23b 17f7 163f
00000060: f957 6b3e 0759 c93e 409c d1bc 86d9 183e
00000070: 0617 6bbf a416 cdbe 596e dfbe a4a6 debe
00000080: 92c1 8e3e eb44 85bc b1ec d23e e1b6 8dbf
00000090: 7339 0bbe b7e3 763e 7603 053f c3b5 e03e
000000a0: 81a4 82be 552d bc3e e6d5 423e 0348 093e
000000b0: 1cc0 e2bd 241e af3e 9502 1a3e 480a 66be
000000c0: b78e c13e 4b78 12bf 12bf 623e 14f4 9bbe
000000d0: b6a5 853e ed50 c8be f995 e73e 2aea cf3d
000000e0: 6be9 60be b941 cc3d 7427 80be dcb1 86bd
000000f0: 84eb c8bd 0570 74be 5e01 e93e 302d 973d
00000100: dd2b c53e 5f9b 68bd 1c89 04be 8281 e7bf
00000110: 3b1b e33b 187d 9fbe 8533 f53e e083 d33c
00000120: 414f 81be 45f7 0b3f 0dcd d5bd a2a9 ad3e
00000130: 6a9f a23c d41a ee3e 3686 0c3f 9c3a 973e
00000140: 3dbf d0be 841e dfbf 973e ba3e 6f61 f0bf
00000150: c7e5 413e b88d 6bbe 8e2e c93e af2c 2ebe
00000160: 3004 863e 5939 553e e6e2 2a3e 19f4 aebe
00000170: 348b fdbc 9421 3f3e b075 5abe 4dc6 6a3d
00000180: 21eb 3ebd 407b 05bf c54d acbe a706 463e
00000190: 865d ad3e b8bf b2be f241 133f fbc2 51be
000001a0: 7622 c83e 46c5 cbbd 8455 bdbe 7ef0 0c3e
000001b0: d985 80be ace0 b9be 161a fabe 6000 f73d
000001c0: 5cb5 113f e12a d7bd 3189 193f 82bf 20bf
000001d0: 3947 11bf 499a c1be 8fa2 9fbd 11e9 073f
000001e0: 1b22 b2be b614 bd3d f10f 80be 55aa 23bb
000001f0: fe03 013f 2653 c73e a0ae 6b3e 5899 e9be
0.49072808 -0.28282142 0.16337201 0.20264527 -0.35702676 0.47063237 0.2505857 0.009179497
-0.42301625 0.25446144 0.28753805 -0.15553306 -0.44554436 -0.55525523 -0.22507831 -0.4435594
0.3990303 -0.047385402 0.4618013 0.3960971 0.4955676 -0.4075063 0.0074100336 0.5897078
0.22982778 0.39325735 -0.025587201 0.14926729 -0.91832006 -0.40056336 -0.43638876 -0.43486512
0.27882057 -0.016268214 0.41196206 -1.1071435 -0.13596134 0.24110304 0.51958406 0.43888673
-0.25516132 0.36753336 0.19026908 0.13406377 -0.11071798 0.34202683 0.15040047 -0.2246486
0.37804195 -0.572148 0.221432 -0.30459654 0.2610299 -0.3912424 0.45231608 0.10152085
-0.21964042 0.09973473 -0.250301 -0.06576893 -0.09810546 -0.23870857 0.45508856 0.07381666
0.38510028 -0.0567888 -0.12942928 -1.8086398 0.0069307364 -0.31150126 0.4789087 0.025819719
-0.25255778 0.5467418 -0.10439501 0.33918482 0.019851405 0.46504843 0.5489229 0.29536903
-0.40770903 -1.7431188 0.36375877 -1.8779734 0.1893531 -0.2300328 0.3929333 -0.17009233
0.2617507 0.20822658 0.16688117 -0.34170607 -0.030950166 0.18665153 -0.21333957 0.05731802
-0.046610955 -0.5214119 -0.33653083 0.19338475 0.33860415 -0.34911895 0.575225 -0.20484535
0.39088792 -0.09949736 -0.36979306 0.13763615 -0.25102118 -0.36304224 -0.48848027 0.120606184
0.5691736 -0.105062254 0.5997496 -0.6279222 -0.567493 -0.37813023 -0.077946775 0.53090006
-0.34791645 0.09232466 -0.25012162 -0.0024973352 0.50396717 0.38930625 0.23015833 -0.45624804
